pth/model.pth (torch, 810965 bytes, 77 tensors)

conv.weight f4 [16, 3, 3, 3]
00000000: c448 77bf 3cf1 1bc0 bbeb edbf e70a b7bb
00000010: 7a43 dbbd 3398 b33e a319 1840 276c 0640
00000020: 2c89 ed3f b73c 0fbe a37d 9cbf c3f5 83bf
00000030: a521 19bf 4da7 57bf d1fc 84bd 2390 5d3f
00000040: 74e3 363f 0d01 273e 58d4 b73f e0d9 e63e
00000050: d2b4 fd3e e896 81bf da90 a7bf 7b93 4ebf
00000060: b47c c8be 34f7 25bf 46cc 9dbf bd6f eebe
00000070: b947 ddbe c5af 05be 2ef2 c5be c2ba 053f
00000080: d198 1f3f c190 74be e184 193f dded 463e
00000090: 710e e9be 5ae0 ddbe 68e0 50be f696 36bf
000000a0: 76de c03d 5e8c 0e3f c549 9ebe f1ff bd3e
000000b0: ad8f 1f3e 552b 7dbf 252b 29bf 158b e0be
000000c0: b2dd ecbf 14d0 4bbf 3596 edbe c53e c5bf
000000d0: 3864 18bf be9d d6be 39aa 4fbe fd64 3abe
000000e0: 6885 b6be c807 dfbe 7596 26bf 68ff 7dbf
000000f0: c3a3 98be c2ca 1fbf 613f 5abf ea85 39bf
00000100: 0343 c0bd 9182 0cbf 4070 b6be 2639 103f
00000110: 3897 e73a 56ed fcbe 313e c0be ff1a c7be
00000120: 07dc 9c3f 6f88 4c40 c5de de3f af66 1a40
00000130: 5cb2 8940 07a8 3540 0a94 d73c e977 0d3f
00000140: ca42 1c3f 0df6 9d3f da39 f83f 3ff4 013e
00000150: 989a a140 527e 9a40 fd7c e03e 66c0 8b3f
00000160: 8e6a 0940 bd26 9c3f ada1 44be 6386 283e
00000170: 7c61 85bf 04b4 8b3f 4b45 e33e 997f 8cbf
00000180: d058 0e3f 176b 143f 6fb9 acbe 46b7 6a3f
00000190: e12c 553f 7791 0bbf d308 9c3f fb11 4f3f
000001a0: 1bb9 60bf a753 5c3e 9d89 ad3e ade3 56bf
000001b0: 0f75 0e40 206d cc3f 81a6 a23e 271b 04bf
000001c0: bfde 09bf cb4a cd3f 0e11 bcbb 6be9 3cbf
000001d0: 8f15 6e3d ff2e 89be 5218 4dbf 1dc8 bdbf
000001e0: 0e70 42c0 d176 2cc0 fb0d 013f a64d f5bf
000001f0: 363b 8dbf e2df 013e 8750 7b3f 1a56 533f
00000200: 550d 27bf dd68 8abf 1752 4dbd 5165 b53f
00000210: 2449 5ebe c737 9c3f 8f5c b83f 689c 33bf
00000220: bb1a 8abe e44c 89bd 98c5 533f caa6 0040
00000230: e3f5 ba3e 6368 b43f 624c c73f 3cc0 3f3f
00000240: 8cdc 12c0 1d00 08c0 8376 fabf df35 35bf
00000250: d81d d73e 694c 8bbf 2c7b 1cbf 17db 22bf
00000260: d710 97bf fbb6 88bf 8ccf e6be d0da 36bf
00000270: 529d c03f 6af8 2e40 7f06 543f 7921 983f
00000280: 94bd cc3f b0d7 933e cf9d ecbe ee2b 22be
00000290: 70e6 933f 994d d4bf 97a9 19be 1331 0040
000002a0: cec2 363d eacd 483e cee8 f83d 4800 adbf
000002b0: bf48 2dbf 4375 993f fcd6 20c0 d918 61bf
000002c0: f318 0640 f7cb 5ebf c7be c4bd 3e2f df3e
000002d0: e827 41bf d377 96be de17 a83f 5490 15c0
000002e0: 3757 babd a83a 2d40 e90e 34bf b1ed f53e
000002f0: c375 c83f aa13 a03f d7e8 213f 244d 253f
00000300: a146 e43e daf9 96bf 9df9 11bf 951a da3f
00000310: a344 87bf 6e61 0bc0 1286 ad3f 587f 123e
00000320: e26a 173e b577 a7be f66e 38c0 11f8 17c0
00000330: a74c cb3f e426 07c0 f2fd 94c0 162c f73b
00000340: e72e e6bd 6457 383d aae9 83bf 5ae2 8ebf
00000350: 6adf 523c fa6f fe3e c96a 6abf b35d 59bf
00000360: 2976 c0be 9644 fcbe 9e64 84bf 4051 623f
00000370: 8d7d b23f f23d a93e 9b5f acbe 57e0 cb3e
00000380: 4421 f5be db23 a53f 46a1 d03f 3d2d 513f
00000390: 9ed8 e53f 664c 0840 db90 403f 3c6e 253f
000003a0: 727c 863f 4e44 afbe 6c2f 52be 04af b5bf
000003b0: 2587 b4bf 866e ccbf 3870 20c0 cfac 30c0
000003c0: 229e a1bf b740 a6bf 0088 fabf e7a6 d83e
000003d0: 63e4 c43f 43d6 2e3e f482 cfbf 51c3 11c0
000003e0: c482 c1bf 1eaf bd3c 6e61 35bf 76e2 0d3f
000003f0: 65b5 0340 a458 8040 9866 ce3f 08a1 62bf
-0.96595407 -2.4365988 -1.8587564 -0.0055860165 -0.107062295 0.35077056 2.3765647 2.100351
1.8557487 -0.13988005 -1.2225841 -1.0309376 -0.5981696 -0.84239656 -0.064935334 0.8654806
0.71440816 0.16308995 1.4361677 0.450881 0.49552017 -1.0124178 -1.309108 -0.8069379
-0.3915764 -0.6483033 -1.2327964 -0.46569625 -0.43218783 -0.13055332 -0.3866133 0.52238095
0.62342554 -0.23883344 0.5996838 0.19426675 -0.4551883 -0.4333523 -0.20398104 -0.713241
0.09417431 0.55682933 -0.30915657 0.3710933 0.15582152 -0.98894244 -0.6608146 -0.4385611
-1.8505156 -0.7961438 -0.4640366 -1.5409781 -0.5952792 -0.41917223 -0.20279779 -0.18202586
-0.35648656 -0.43560624 -0.6507333 -0.99217844 -0.2981244 -0.6241876 -0.8525296 -0.7246996
-0.093877815 -0.5488673 -0.35632515 0.563372 0.0017668968 -0.49399823 -0.37547448 -0.38887784
1.2254647 3.1958272 1.7411734 2.4125173 4.3030224 2.8383806 0.026315708 0.55261093
0.6103941 1.2340714 1.9392655 0.12690829 5.0501213 4.82792 0.43845358 1.091809
2.1471286 1.2199322 -0.192023 0.16457514 -1.0420375 1.0914311 0.44388804 -1.097644
0.5560427 0.57975906 -0.33735225 0.91685903 0.83271605 -0.54518837 1.2190193 0.8088681
-0.8778245 0.21516286 0.33894053 -0.83941156 2.2258947 1.5970802 0.31767657 -0.5160393
-0.5385551 1.603845 -0.0057393378 -0.7379367 0.05812603 -0.26793668 -0.80115235 -1.4826695
-3.0380893 -2.694752 0.5041196 -1.9164321 -1.1033695 0.12683061 0.9816975 0.82553256
-0.6525472 -1.0813252 -0.050127115 1.4171544 -0.21707588 1.2204522 1.4403247 -0.7016053
-0.2697352 -0.06704119 0.8272338 2.01018 0.36515722 1.4094356 1.5570185 0.749027
-2.294711 -2.125007 -1.9567417 -0.70785326 0.42014956 -1.0882694 -0.61125445 -0.63615555
-1.1802014 -1.0680841 -0.4508022 -0.7142763 1.504801 2.733912 0.8282241 1.1885215
1.5995355 0.28875494 -0.46214148 -0.1583707 1.1554699 -1.6586181 -0.150061 2.0029953
0.044619374 0.196098 0.12153779 -1.3515711 -0.67689127 1.198891 -2.5131216 -0.8792854
2.0952728 -0.87029976 -0.096067004 0.4359073 -0.7545152 -0.29388294 1.3132284 -2.336934
-0.09098666 2.706705 -0.7033525 0.48032907 1.5660938 1.2506001 0.6324591 0.6457083
0.44585136 -1.1794999 -0.57021505 1.7039362 -1.0567821 -2.1778216 1.355654 0.1430639
0.14786866 -0.32708517 -2.8817725 -2.3745158 1.5882767 -2.1117487 -4.655999 0.0075430973
-0.11239415 0.045005217 -1.0305684 -1.1162827 0.012870649 0.49694806 -0.9156919 -0.849086
-0.3759015 -0.49271077 -1.0343206 0.8840523 1.3944565 0.33055073 -0.3366669 0.39819595
-0.47876942 1.2901567 1.6299217 0.81709653 1.7956731 2.129663 0.7522103 0.6462133
1.0506728 -0.342318 -0.20525903 -1.4194036 -1.4103743 -1.5971229 -2.5068493 -2.7605474
-1.2626383 -1.2988499 -1.9572754 0.42314836 1.5382198 0.17073922 -1.6211839 -2.2775462
-1.5118032 0.023154791 -0.7085179 0.55423677 2.0579464 4.0108204 1.6125059 -0.88526964

bn.weight f4 [16]
00000000: 2a02 3c3f 1549 823e 31ef 8e3f 325b 8c3f
00000010: 25b5 363f 0239 953f 564e 1f40 39c2 bb3f
00000020: 3222 873f 03ce 0740 541b 733f 41e6 df3f
00000030: b6ad a63f 9486 7740 639e 6b3f fb90 2940
0.734408 0.25446382 1.1166745 1.0965331 0.71370155 1.1658022 2.4891562 1.4668647
1.055731 2.121949 0.94963574 1.7492143 1.3021762 3.867589 0.92038554 2.649474

bn.bias f4 [16]
00000000: bbf7 91bf 77f5 58bf bfa5 c03e bc24 80bf
00000010: 5937 36be 5ae1 5c3f b369 cb3f d1c7 4cbd
00000020: 1ea7 d4bf 63a7 fb3f ec93 70bf e64c c93f
00000030: 0645 103f 3846 9840 a6a5 86bf e068 ab3f
-1.1403726 -0.8474955 0.37626454 -1.001121 -0.17794551 0.8628136 1.5891632 -0.049995247
-1.66135 1.9660457 -0.9397571 1.5726593 0.5635532 4.7585716 -1.0519302 1.339138

bn.running_mean f4 [16]
00000000: 8286 d7bf 0edc 63c0 921f 8040 a0f6 1941
00000010: 92fc c4bf 8600 423f 8ae3 103e 9e9a bfc0
00000020: 7a57 b2bf 221d b23d a8c7 38c1 c052 4dbe
00000030: 17fa ebbf 6223 d3bb f879 22c1 8319 7f3e
-1.6837924 -3.560306 4.003854 9.622711 -1.5389578 0.7578205 0.141493 -5.987624
-1.3932946 0.08696963 -11.548744 -0.20051098 -1.8435696 -0.006443427 -10.154778 0.24912076

bn.running_var f4 [16]
00000000: 3141 1440 6bb3 8b40 aa72 1041 9ba5 b041
00000010: bee2 d63f 5404 3c40 d668 8e40 915c 4041
00000020: a1fb 6040 5857 5540 480e 1242 ad11 0340
00000030: 14fd 7840 e842 1b3f 1d1b d441 f8c3 9040
2.316479 4.3656516 9.027994 22.080862 1.6787946 2.9377642 4.4502974 12.022599
3.5153582 3.333456 36.513947 2.0479538 3.8904467 0.60648966 26.513239 4.523922

layer1.0.conv1.weight f4 [16, 16, 3, 3]
00000000: cd4a 653e 485b df3e 572c ffbe 2ee4 b03c
00000010: c8b7 173f c42e 5e3f eb3b bb3e 3815 e33e
00000020: 5c92 373f dc5d 43be 5bb3 c03e f3cf 0abe
00000030: 215b 50bd d036 263f 7f11 9c3c f6ee 8b3d
00000040: 1e04 2d3f e351 323d 5192 6cbf 4787 0ebe
00000050: ca05 7c3f 8328 3cbf 77f2 b8be 425c a73e
00000060: aa22 c6be 386c fabe a41f 8bbe 59ef 98bf
00000070: a045 1fc0 cb80 c0bf 3423 61bc c84c babf
00000080: 0b6f 0bbf ecde 7c3f 6453 98be eff5 8d3f
00000090: db34 05c0 f997 66bf 2b17 b2be c0f5 a6bf
000000a0: 9862 61bf a535 b9bf 6ae4 963f 87ad 363f
000000b0: 7383 b3bf a600 6cc0 ab6e 1cc0 5c76 d0bf
000000c0: eed8 84c0 4f6c 16c0 3b02 bcbf 5928 87c0
000000d0: 1927 01c0 8195 4bbe 910b 97be d950 d63f
000000e0: 1e2d c43f 0e53 31bf 475d a93f fe4b 0f3f
000000f0: 6a29 973f 8457 0740 6ca1 7cbd 2c1d 813f
00000100: 23cd 873f 954c dd3f 2941 8d3f 51c1 973e
00000110: 4001 8a3f f84b 923f 1b4e 593f 8598 8d3f
00000120: f745 85be eab7 ea3d 5c25 b1bf b48f 2abf
00000130: f720 85be 92f8 d2bf 3153 99bf 3072 54bf
00000140: a400 e5bf 2269 c13f 3461 2b40 c254 363f
00000150: ef61 b43e 6c2b e43e 71c2 48bf b802 a43f
00000160: 0ef1 593f 83e4 d7be e27f 52be bf00 b4be
00000170: 4dc4 54be 9a9c 0f3f 1e15 293e fbab 753e
00000180: fdad 423f 6819 24be bfcd 8a3c 3673 1cc0
00000190: 2f07 0ec0 a62e d9be b573 f5bf f37e 3bc0
000001a0: aab7 a2bf 3980 e9be 3599 08c0 c1d5 8bbf
000001b0: 1e72 eabd 3236 c3be b7f3 21bf ca74 20bf
000001c0: 25ba 82bf fb6d a4bf bbeb 5cbf 7cff 8bbf
000001d0: 74bf a6bf 04c4 e23f c2cf 1c3f 3297 353e
000001e0: 1a44 6e3d 0f5d 01bf f595 eabd b1dc 893e
000001f0: 9038 adbf 9420 45bf 9ea5 adbe cfba 83bf
00000200: bc00 4ebe bdd5 8a3e 98a2 5cbf 856d 6cbe
00000210: 80ed 8ebd ec5a 92bf 7d98 bebe d8f4 ca3f
00000220: 3adb a73f e227 363f dd24 dd3f 8e5e af3e
00000230: fd2b 613f 9d91 8f3f 9462 abbe f4f0 a23f
00000240: afed 60bf 3d17 8ebf c4c6 96bf e8d1 0c3d
00000250: 4b3d 98bf 68bd 02c0 ed7f 893e a30e 8dbe
00000260: f72e 43bf 5348 603e 3346 a33e f5b8 0b3e
00000270: 470d d83c a56b 5f3e 1d6c 093e ed62 80be
00000280: 4dfd c2bd e835 43be 734b 023f f4a8 243f
00000290: 6654 5cbe e62c 993f 79ac c53f abf2 3d3f
000002a0: caf8 b53e a411 073f 2e3c 12bd 43c0 793f
000002b0: f30a 0c40 3b23 1740 fd98 033f f22e c43f
000002c0: e775 e23f 2f20 c5be 8b26 f73d 6167 653e
000002d0: c5d1 aebe 11e7 bebe c941 68bf 96e3 06bf
000002e0: 8245 11bf 6d70 23bf 850e f7be 105b 94be
000002f0: e884 c4bd 2a97 e3be 5775 813f 2374 463f
00000300: 8326 0bc0 67f7 a8bf effd d8bf c33b b7bf
00000310: 1bb9 54bf a076 a8bf 4e45 55bf e8dd 28bf
00000320: 27ca b0bf 0d98 49be 3d78 76bf 85f9 0fc0
00000330: 3729 23bf 32bb 33bf fb0d a9bf f266 86be
00000340: 5454 80bf 9987 abbf 5b31 6bbe 4238 9d3e
00000350: b44e 863e f00d 9dbe ed90 0a3f c2d2 af3f
00000360: e211 0240 5f57 d53f 2453 823f 8c81 d83f
00000370: d334 c73f 9ff6 923f 613d 4f3f d069 753f
00000380: 92b1 293f 861e 08c0 820d 53c0 d38b 83c0
00000390: b6bf 78be 2238 12be 2cd5 10bf 50ca 3fbf
000003a0: 445e b03d 3b5d 8a3e a452 1abf 6a1d 2abf
000003b0: a5fb 5abf b3d2 e7bd faf6 2abf 49fd 5fbf
000003c0: f5dc 263f 500c 4c3e 5c4a 2d3e 6615 0d3f
000003d0: 4deb 8abe 2262 593f 2d7c c23e edd6 1e3f
000003e0: 0629 0f40 0520 0d3f f60d 013f 3620 e33f
000003f0: 9da9 943e d8cc 6fbe a6d8 93bf 3b62 8e3f
0.22391815 0.4362433 -0.49838516 0.02159318 0.592648 0.8679011 0.3656915 0.44352126
0.717077 -0.19078773 0.37636837 -0.13555889 -0.050868157 0.6492739 0.019051312 0.068326876
0.6758441 0.043535125 -0.9241076 -0.13918792 0.98446333 -0.73499316 -0.36122486 0.32687575
-0.38698322 -0.4891069 -0.27172577 -1.1948043 -2.4886246 -1.5039304 -0.013741303 -1.4554682
-0.54466313 0.9877765 -0.29751122 1.1090678 -2.081351 -0.9007564 -0.347833 -1.3043747
-0.8804107 -1.4469496 1.1788456 0.7135853 -1.402449 -3.6875396 -2.4442546 -1.628612
-4.1514807 -2.3503606 -1.4688181 -4.2236753 -2.0180113 -0.1988125 -0.29501012 1.6743423
1.5326269 -0.69267356 1.3231591 0.5597533 1.1809514 2.1147165 -0.06167738 1.0087028
1.0609478 1.7288996 1.103551 0.29639676 1.0781631 1.1429434 0.84884804 1.106217
-0.2602994 0.1146086 -1.3839526 -0.66625524 -0.26001713 -1.6482108 -1.1978513 -0.82986736
-1.789082 1.5110209 2.6778078 0.7122308 0.35230967 0.44564378 -0.78421694 1.281333
0.85133445 -0.42166528 -0.20556596 -0.3515682 -0.20778008 0.5609833 0.16511962 0.23991387
0.76046735 -0.16025317 0.01694381 -2.444532 -2.2191885 -0.42418402 -1.9175936 -2.9296234
-1.27123 -0.4560564 -2.134351 -1.0924608 -0.114475474 -0.38127285 -0.63262504 -0.62678206
-1.0213057 -1.2846063 -0.86297196 -1.0937343 -1.3027177 1.7716069 0.61254513 0.17733458
0.058170415 -0.5053262 -0.11454383 0.26926187 -1.3532887 -0.77002835 -0.33915418 -1.0291384
-0.20117468 0.27116194 -0.861856 -0.23088653 -0.06978893 -1.1433997 -0.37225714 1.585597
1.3113778 0.71154606 1.7276875 0.34251827 0.87957746 1.1216313 -0.33473647 1.2729783
-0.87862676 -1.1100842 -1.1779408 0.03437987 -1.1893705 -2.0428104 0.26855412 -0.2755023
-0.7624354 0.2190259 0.31889495 0.13644774 0.026373519 0.21818407 0.13420148 -0.25075474
-0.095209695 -0.19063532 0.50896376 0.643203 -0.2151657 1.1966827 1.544326 0.74198407
0.35541373 0.5276129 -0.035701923 0.97558993 2.1881683 2.3615253 0.51405317 1.5326827
1.7692231 -0.38501117 0.12067898 0.22402717 -0.34144416 -0.37285665 -0.9072538 -0.5269102
-0.56746686 -0.63843423 -0.48253265 -0.28975725 -0.09595662 -0.44451267 1.0113934 0.7752096
-2.1742256 -1.3200501 -1.6952494 -1.4315113 -0.8309495 -1.3161201 -0.83308876 -0.659636
-1.3811692 -0.19686909 -0.9627722 -2.2496045 -0.63734764 -0.7020751 -1.3207392 -0.26250416
-1.0025735 -1.3400756 -0.22968046 0.30706984 0.2623192 -0.30674696 0.5412739 1.3736193
2.0323415 1.6667289 1.0181623 1.6914535 1.5562996 1.1481513 0.8095303 0.9586458
0.66286576 -2.126863 -3.2976995 -4.1108184 -0.24291882 -0.14279225 -0.56575274 -0.7491808
0.0861173 0.27024254 -0.6028235 -0.6645113 -0.8554023 -0.113194846 -0.66783106 -0.8749586
0.65180904 0.19926572 0.16922897 0.55110776 -0.27132645 0.84915364 0.37985364 0.620467
2.2368789 0.5512698 0.5041193 1.7744205 0.29035655 -0.23417985 -1.1550491 1.1123728

layer1.0.bn1.weight f4 [16]
00000000: 02c7 ae3f 003b 253f 5914 c03f 07f3 1d40
00000010: 4292 9a3f dfad 1a40 6398 fe3f adf3 4a40
00000020: 7ab9 fb3f 4816 a93f d05e 6c3f a5a7 d53f
00000030: 365d c53f 5e13 4c3f 6cc7 c13f 88de 3f40
1.3654482 0.6454315 1.500621 2.4679582 1.2075884 2.4168622 1.9890255 3.1711228
1.9665978 1.3209925 0.9233217 1.6691786 1.5419071 0.7971705 1.5138984 2.9979572

layer1.0.bn1.bias f4 [16]
00000000: 7dc1 7fbf 10b5 303e 464b 68bf 9da8 e03e
00000010: 784c 743f d185 ea3f 5bfb b1bf 8852 5540
00000020: 03d9 8a3e c4bf e9bf 25f7 41be 2e08 a0be
00000030: d8fb 43bf 4b3b 313e bc10 14be 55ae 1e40
-0.99904615 0.1725657 -0.9073986 0.43878642 0.9542918 1.8322088 -1.3904833 3.3331623
0.27118692 -1.8261647 -0.18941934 -0.3125624 -0.7655616 0.17307775 -0.14459509 2.4793904

layer1.0.bn1.running_mean f4 [16]
00000000: 6067 e9c0 2756 96c2 f19c d0c1 c42e 2cc2
00000010: 0bbd d5c1 d242 a141 4c7a 9b41 8864 30c1
00000020: a3b3 14c2 f04e dac0 baec 4cc2 def8 17c2
00000030: bc5e 3041 94a9 bfc1 691a f5c1 befa 03c2
-7.293869 -75.16827 -26.076632 -43.04567 -26.717306 20.157627 19.434715 -11.024544
-37.175426 -6.822136 -51.23118 -37.993034 11.0231285 -23.957802 -30.637896 -32.994865

layer1.0.bn1.running_var f4 [16]
00000000: 3ab6 3e44 9e55 7a44 e3c7 5c44 6672 8b44
00000010: f4e6 4344 676e 4d44 d248 9644 83fe 1e44
00000020: 82ca 1645 4929 3844 df9f 0444 f05e d744
00000030: 67ae 0c44 a668 1644 19a8 b844 2d21 3e44
762.8473 1001.33777 883.1232 1115.575 783.60864 821.72504 1202.2756 635.97675
2412.6567 736.6451 530.498 1722.9668 562.72504 601.63513 1477.253 760.5184

layer1.0.conv2.weight f4 [16, 16, 3, 3]
00000000: 27c5 0040 452b 853e b399 ebbc 915a 7d3f
00000010: 8e92 8cbe 102e b9be 5527 cb3f d25c 31bd
00000020: 110c e7bd 9a70 3dbf 746e 9cbf 0141 d7be
00000030: c142 08be 998f b6bf a1f3 3cbf 218c 013f
00000040: b349 0b3f 9abf da3e 6432 8ebf 36cb 243f
00000050: 99cb 47bd 9ca4 3a3f 63e4 8c3f ea72 393f
00000060: cabc 773f 2f98 823e ef28 4a3f ddd9 5bbf
00000070: cb50 253f ffba 9e3f 937f fd3e 16a0 df3f
00000080: 0e69 c33f 3778 b23f 52cb 9e3f 2a92 3cbc
00000090: 2340 b8bf 7d4e 27bf 84b1 bdbd 0e4c d23d
000000a0: aaa7 193d fbdb 4f3f 7cd6 953e d94d bb3e
000000b0: 3fa7 cb3f f229 f9bf 14b8 8fbe 0be2 fbbf
000000c0: 3243 b7bf 44d6 dbbf 3fbd 49c0 128b 8dbf
000000d0: 8d92 07c0 e0e9 8ebf ced2 cfbf f330 003e
000000e0: bc55 c93d 4dc9 aa3f ec3e b93f 34bc 643e
000000f0: 50c7 24bf 3686 b6bf 3744 813e 2f85 4ec0
00000100: d492 81bf 39b9 843f ca1c a83f 5078 c8bf
00000110: 6ce4 913d 1cc9 b63f d00b 07bf c096 473f
00000120: 605f 5d3e dc79 01bf ae09 ae3e 8a2b 983e
00000130: 12ab 16bf 90d3 c2be 2070 1f3f 7053 c73d
00000140: af14 713e 0d0a 65c0 4ec7 8bbf df6d 24bf
00000150: db56 7bbe 98e7 34bc 5e8a c6be e255 28bf
00000160: 9791 103e d8a9 fbbd 0fb0 613f 06ad 663f
00000170: c1d1 d23f 41c4 863f 14e4 f33e 34f4 e43e
00000180: 3fd7 01be 96c6 2e3f d458 5c3f 0e3b 2140
00000190: 1f6e e03f 79ad b6bd 8554 8f3f e610 043f
000001a0: 28e0 71be cbb7 203f e02f 3d3e 4dc5 debf
000001b0: 8f43 013f fb00 e73e 80e5 2e40 1eb5 d23f
000001c0: dfce b03f f169 3b40 6ed8 1b40 4e69 cd3f
000001d0: 774d 623f 849a 01be 40fa 173f 3a9c b6be
000001e0: a531 ce3f 11c1 f63f f3ec bebd 44e8 283f
000001f0: 0290 da3e 59a4 72bf ed0a d9be 980c 3cbf
00000200: 4ee7 08bf ad82 963d 831b c5bd f13e 83bf
00000210: 8162 8cbd e809 b9be aa35 523f b1af a6bf
00000220: 12e5 81bf 3bce 50bf c36c 2840 d37a 2a40
00000230: 92ed 903f 07f9 9f3f a190 6f3f eafd 70bf
00000240: 1b72 1b40 b5f9 293f d79c 61bf ff11 6a3d
00000250: ff58 87bf bb9d 8abf ee9f babe d385 5ebe
00000260: 00b5 aebe 2a8f a0bf 0ceb 41bf 59ba eabf
00000270: 8372 f4bd ee53 8f3e ada6 ea3e d145 2ebf
00000280: f82a 7abe 4fff 073e c41e 44be 4e58 32c0
00000290: 4368 0ac0 5f27 1d3e c2a7 67c0 a3a9 0bc0
000002a0: 58bf ed3c b1d4 a8bf 8541 dfbe 7fcf debb
000002b0: 8b36 1c3f 060c a13f 03a9 85bf d01c 6fbf
000002c0: c71c 303f a276 c9bf 10f3 6dbf 0871 69bf
000002d0: f23b 963d c15c ebbf 91b9 293f e032 193e
000002e0: a3c4 b2bf e25c 613f 4f80 fb3e f3a8 58bf
000002f0: f47c 5c3e aea3 06bf 7417 f13e c163 f63f
00000300: 4743 5abf 86ad 86be d266 ee3f d6ec 63bf
00000310: 98fd dabf b6fd e6be 1ce6 0bbf 9ec1 31bf
00000320: 4366 87bf c7dc eb3d a56a b3be ff90 633f
00000330: 6355 b3be 4b57 1fbf 00a3 2f3f 43cf 24bf
00000340: 5ef7 79bf 4b36 a2bf 90c3 043e edc1 d8be
00000350: d54f d5bf 87c8 533d 68cd e63d 9464 b93e
00000360: cc9a 29c0 ba76 78c0 35e1 56c0 21d0 4ebf
00000370: ac9e ebbf 692b 3dc0 3656 023f 64ea 8e3f
00000380: c6cd 78bf 6b2c d33f 8992 b53d 6369 69bf
00000390: 0d67 4fbe 031d 98be a51e 853e 7151 d3be
000003a0: 301c b93e ec43 88be 4d4f 5c3f bc7c 7fbf
000003b0: e195 babf 43d9 553f 0e8e 08bf 2bdd b0bf
000003c0: e7f1 d23e eb8c 943e 07f1 f33e b6d9 9bbf
000003d0: 865e 2b40 0162 9240 d8d2 d33e 2eba 8f40
000003e0: 0957 d740 32d9 e73e becd e63f d8ed 1b40
000003f0: 741f 2740 98c7 e13f 8dce 7d3f 8305 0340
2.0120332 0.26009575 -0.028759813 0.9896632 -0.27455562 -0.36167955 1.5871378 -0.04330141
-0.11281598 -0.7399994 -1.2221208 -0.42041782 -0.13306715 -1.4262573 -0.7380925 0.50604445
0.5440933 0.42724305 -1.1109128 0.64372575 -0.04877815 0.72907424 1.1007198 0.7244097
0.96772444 0.25506732 0.7896871 -0.8587931 0.64576405 1.2400817 0.49511394 1.7470729
1.5266435 1.3942937 1.2405798 -0.011509458 -1.4394573 -0.6535414 -0.09262374 0.102684125
0.037513413 0.8119504 0.292652 0.3658283 1.5910414 -1.9465926 -0.28070128 -1.9678358
-1.4317381 -1.7174764 -3.1521757 -1.1058066 -2.1183197 -1.1165123 -1.6236207 0.12518673
0.09830806 1.3342682 1.4472327 0.22337419 -0.64366627 -1.4259708 0.25247356 -3.226879
-1.0122933 1.0369025 1.3133786 -1.5661716 0.07123646 1.4280124 -0.527524 0.779644
0.21618414 -0.5057657 0.3399176 0.29720718 -0.5885478 -0.38052034 0.62280464 0.09732711
0.23543046 -3.5787385 -1.0920198 -0.6423015 -0.24544851 -0.011041544 -0.3877744 -0.65756047
0.14118038 -0.122882545 0.8815927 0.9010776 1.6470262 1.0528642 0.47634947 0.44717562
-0.12679766 0.6827177 0.8607304 2.5192294 1.7533606 -0.08919806 1.1197668 0.51588285
-0.23620665 0.62780446 0.18475294 -1.7403961 0.5049371 0.45117936 2.7327576 1.6461523
1.3813132 2.9283412 2.4350848 1.6047761 0.8839945 -0.126566 0.59366226 -0.35666066
1.61089 1.9277669 -0.09322538 0.6597941 0.42687994 -0.94782025 -0.42391148 -0.73456717
-0.5347794 0.07349143 -0.09624388 -1.0253583 -0.06854726 -0.3614037 0.82113135 -1.3022367
-1.0148032 -0.8156468 2.6316383 2.6637466 1.1322501 1.2497872 0.9358006 -0.9413744
2.4288394 0.6639665 -0.88129944 0.05714607 -1.0574034 -1.0829386 -0.36450142 -0.21730737
-0.34122467 -1.254369 -0.7574928 -1.8338119 -0.11935904 0.2799372 0.4583029 -0.6807528
-0.24430454 0.13280986 -0.19152361 -2.7866397 -2.1626136 0.1534705 -3.6196141 -2.1822288
0.029021904 -1.3189908 -0.43604675 -0.006799638 0.61020726 1.2581794 -1.0442203 -0.9340334
0.6879391 -1.5739329 -0.9294901 -0.91188097 0.073356524 -1.8387681 0.66298777 0.14960814
-1.3966259 0.8803235 0.4912133 -0.84632796 0.21532041 -0.52593505 0.47088206 1.9249192
-0.8525891 -0.26304263 1.8625128 -0.8903326 -1.7108641 -0.4511544 -0.54647994 -0.6943606
-1.0578083 0.11516719 -0.350423 0.8889312 -0.35026082 -0.62242573 0.68608093 -0.64378756
-0.9764308 -1.2672819 0.12965226 -0.42335454 -1.6664988 0.05170491 0.11269647 0.36209548
-2.650073 -3.8822465 -3.3574955 -0.8078633 -1.8407798 -2.9557745 0.509128 1.116528
-0.97188985 1.649793 0.0886584 -0.9117643 -0.20254155 -0.29709634 0.25999942 -0.41273072
0.36154318 -0.2661432 0.86058503 -0.99799705 -1.457699 0.8353464 -0.5334176 -1.3817495
0.41200182 0.29013762 0.47644827 -1.2175815 2.6776443 4.5744634 0.413718 4.491477
6.7293744 0.45282894 1.8031538 2.4363918 2.6112947 1.7639036 0.99143296 2.0472114

layer1.0.bn2.weight f4 [16]
00000000: f87b 803f 7668 fe3f bcb7 fd3e c108 eb3f
00000010: 3159 3140 be6d 0440 e523 3540 88cd c03f
00000020: 95e1 4640 e6f5 0d40 75f0 df3f 7e6c ac3e
00000030: 88d0 a93e 0555 5040 323e 5e40 b7a6 3a40
1.0037832 1.9875629 0.4955424 1.8362046 2.7710688 2.0691981 2.8303158 1.5062723
3.1075184 2.2181334 1.7495257 0.33676523 0.3316691 3.2551892 3.472546 2.9164255

layer1.0.bn2.bias f4 [16]
00000000: fe19 a4bf b13a b4be cfaa 423f d20a d43d
00000010: ec91 9f3e 8279 073f 8218 50bf 1e5e 86bf
00000020: cc75 9ebc f2cf 743f 3b63 b8be 81e2 613f
00000030: ccc7 333f dd1a 7ebf a77d 053f 3dca 2b3f
-1.2820432 -0.35201028 0.76041883 0.10353626 0.31166017 0.5291978 -0.81287396 -1.0497472
-0.01934328 0.956298 -0.36013207 0.8823624 0.7022674 -0.9925974 0.52144855 0.67105466

layer1.0.bn2.running_mean f4 [16]
00000000: def0 e5c0 1172 9dc1 5bc8 9ac1 c51a 4dc1
00000010: 6e17 d0c1 2436 74c0 f9fb ce3f 792a 6041
00000020: 44d9 c440 bd06 763e 9d81 54c2 26fc 9cc0
00000030: 2917 e6c1 0d1a c2c0 e265 45c1 eb74 afbe
-7.1856527 -19.680696 -19.34783 -12.819036 -26.01144 -3.8158045 1.6170646 14.010369
6.1515217 0.24026008 -53.126575 -4.90578 -28.761309 -6.06568 -12.337374 -0.3426889

layer1.0.bn2.running_var f4 [16]
00000000: 0519 2344 ea65 5d44 5d88 9b44 5aef 9d44
00000010: ec0a 6644 e9e2 b444 49d3 f944 0405 8344
00000020: 3efb 9944 ce3c 5744 a38a 8a44 c7f7 4e44
00000030: aa92 8744 a094 b044 74a2 b544 a3c8 9844
652.3909 885.5924 1244.2614 1263.4797 920.17065 1447.091 1998.6027 1048.1567
1231.8513 860.9501 1108.3324 827.8715 1084.5833 1412.6445 1453.0767 1222.2699

layer1.1.conv1.weight f4 [16, 16, 3, 3]
00000000: 1f5d 93bf 2967 24c0 497f a6bf 0c0a 373f
00000010: c0e4 953f 206c 003f 4612 9dbf 6145 a1bf
00000020: 371b ecbf 3da3 4f3f 5fdb 87bf e35f cbbf
00000030: 1a7a ad3f 62af e6be 4d0d 23bf c648 15bf
00000040: 6ae7 4fbf 565f 7d3f 1908 0abf f230 983e
00000050: 174b 9a3d efd1 b33d c09d 593e b27b 3c3f
00000060: ac1d 52bf 6c1d b2be df22 fdbe 3ca1 8a3f
00000070: a8d5 843f 0b43 ab3e b75c 683e 5db9 86be
00000080: 6599 d8bf 4909 4d3f d08f ca3d eb9d 91bf
00000090: 7d45 2340 30a7 9fbf ac3e 48c0 7644 aa3f
000000a0: fbab ff3f bd0a 84bf b6c1 2fbe 4c7a e1bf
000000b0: 079e 16c0 b75f d5bf 7df2 443f ef7b 98bf
000000c0: 47c7 40c0 e20d 84c0 4532 98bf 2cdc f93e
000000d0: e6a8 c83f 4d8c 893f 9cb5 593f 8254 283e
000000e0: 7f55 2b3e 2ddc 043f a833 133f 20e3 543f
000000f0: 485f f0be de8b 6cbe 166e 5abf edf2 1cbf
00000100: a883 30bf 02ef ecbe e406 a6bd 4742 1ebf
00000110: 6dcf 7ebf 0156 d8be 3c67 22be a336 163f
00000120: 26f2 40c0 b18a 05be 5b7e ce3f 716e 68bf
00000130: 53df 85be 99ad 91be 6d45 a83e 1157 1dbf
00000140: a8d4 303f e058 76bf 66c6 15c0 2491 f03d
00000150: 7dda a9bf d939 6740 0296 cebf 5239 adbe
00000160: 0cbe cabf 5f16 ef3f 9cf5 da3f 5315 84bf
00000170: db52 a83e 9dad 3abe 8fa1 1140 3e83 b1be
00000180: 725b cfbf 46e5 e33e 2343 19c0 8bcd 993f
00000190: 916c 733f acbb 323f 5484 733f 8fe9 753f
000001a0: fd28 55bf d571 0fbf f496 a03d e3f6 b43d
000001b0: b1af 4dbf 9d40 2bbe 78f8 c63e 9f8d 97bd
000001c0: 258f 293f 11db dd3e 3857 d6be 988a 41be
000001d0: 6742 03bf daf0 06bf 4d96 2ac0 fabc 6040
000001e0: 90dc ae3f 8c3b ce3f bbfd 40c0 8897 e7bf
000001f0: f683 6d3f 10d2 37bf a44f 9ebd f4a2 c83f
00000200: 53f8 25c0 c17d 8cbf b54f 67c0 3349 b43f
00000210: 7211 29c0 5135 e3be 381e ac3f cc1c 1ebf
00000220: 9bed 073f 052a 56be 0756 133f a370 74bf
00000230: 5c67 77bf 8051 cc3f e82f 9d3f 794e 343f
00000240: aeb0 5dc0 c15c 1e3f b8d3 933e 5b5f d4bf
00000250: 6d46 253d 6087 25bf 1208 92be 1f71 33bf
00000260: 57ba 7cbf 8eb8 f93e 4f25 73bf 9213 4ac0
00000270: 2f06 6d3f b65b 2fbf 91c4 10c0 bb60 c9be
00000280: f877 0bc0 cb92 31c0 ea10 d93f ae3b a83f
00000290: 6f26 9e3e 26c0 ef3f 801a 0440 46aa 213f
000002a0: 536f 0e40 4d9c 0c40 448e ab3f 466e 0bc0
000002b0: e113 99be 46c5 e73f 3a80 3ec0 2d94 f13c
000002c0: fb72 d33f c24b 27c0 a642 1cbe 0ac8 6c3f
000002d0: 481c 3e3f bd46 c43e cd8b 70bf 25b7 143f
000002e0: 9ee8 49c0 054c efbe bafa 9dbf 06e4 e5be
000002f0: a533 26be d1d3 a43f 7a56 e93f 8fb9 1d3f
00000300: fa54 4a3e cb70 d23f d357 39bf 15a3 c03f
00000310: 8b9d bf3f a332 06bd 2ea2 95bf f103 10c0
00000320: 5484 87c0 cf99 103d b14b 2abf bbd8 23c0
00000330: 8a81 c1bf eeca c5bf 668c 26c0 b786 a3bf
00000340: 5d79 7b3e 1ccf 0d40 60c9 393e 1d9e f03d
00000350: 8207 ac3f 838e 33bf eeec 81bd 098a 28be
00000360: 1a85 a7bf 17ce 6dbe c607 923f 6915 40bf
00000370: 1053 4abf b282 6cbf 74b0 afbf e5a7 89bf
00000380: 83b4 0cc0 249f 0940 85bf 513e 5a98 7a3e
00000390: aab5 b33d 0f51 ea3e f509 bcbd 7caf c7be
000003a0: 020b 503f 565a f63d ea2c f23d 5b1d 4c3f
000003b0: 6e78 a03f a86c 163f 010f ac3f c07d c13f
000003c0: 7525 4fbe bcc0 0540 1ec2 c13f cf42 943f
000003d0: fc32 533f 3128 f63f b4f6 0f3e 28f8 fd3d
000003e0: 68f0 f33e 2f9b 96be a635 393e 6875 0d3e
000003f0: 1276 c3be bedf 34bf 53c1 4dbf 2d4f f6bd
-1.1512793 -2.5687964 -1.3007594 0.71499705 1.1710434 0.50164986 -1.2271202 -1.2599298
-1.8445805 0.81108457 -1.0613822 -1.5888637 1.3552887 -0.4505568 -0.6369217 -0.5831417
-0.81212485 0.98973596 -0.53918606 0.29724842 0.075338535 0.08780276 0.21251583 0.73626244
-0.82076526 -0.34788072 -0.49440667 1.0830455 1.0377703 0.33449587 0.22691618 -0.26313296
-1.6921812 0.80092293 0.09890711 -1.1376318 2.5511162 -1.2472897 -3.1288252 1.3302143
1.9974359 -1.0315777 -0.17163739 -1.7615447 -2.3533952 -1.6669835 0.7693251 -1.1912822
-3.012163 -4.1266947 -1.1890341 0.4880079 1.5676544 1.0745941 0.8504274 0.16438487
0.16731833 0.5189846 0.57500696 0.83159065 -0.46947694 -0.2310023 -0.8532423 -0.61308175
-0.6895089 -0.46276098 -0.08106783 -0.6181988 -0.99535257 -0.42253116 -0.15859693 0.5867712
-3.0147796 -0.13041188 1.6132311 -0.9079352 -0.26146945 -0.28452757 0.32865468 -0.6146098
0.6907449 -0.9622936 -2.3402343 0.117464334 -1.3269802 3.6129057 -1.6139529 -0.33832794
-1.5839248 1.8678702 1.7106204 -1.0319008 0.32875714 -0.1823029 2.2754858 -0.34670442
-1.6199782 0.4451086 -2.3947227 1.2015852 0.95087534 0.69817615 0.9512379 0.9605951
-0.8326567 -0.5603307 0.07841292 0.088361524 -0.8034621 -0.16723867 0.38861442 -0.07400059
0.66234046 0.43331197 -0.41863418 -0.18900526 -0.51273197 -0.5271126 -2.6654236 3.5115342
1.366106 1.6111922 -3.0154865 -1.8093119 0.9277948 -0.71804905 -0.07730034 1.5674729
-2.5932815 -1.0975877 -3.61424 1.4084839 -2.6416898 -0.44376615 1.3446722 -0.6176269
0.5309693 -0.20914467 0.5755314 -0.9548437 -0.9664209 1.5962372 1.2280245 0.7043224
-3.4639087 0.6186028 0.28872466 -1.65916 0.040350366 -0.6465969 -0.28521782 -0.70094484
-0.9872183 0.48773617 -0.94978803 -3.1574445 0.9258756 -0.68499315 -2.2619975 -0.39331612
-2.1791973 -2.7745845 1.6958287 1.3143213 0.30888698 1.8730514 2.0641174 0.6315044
2.2255447 2.1970398 1.3402791 -2.1786056 -0.2989798 1.8107078 -2.9765763 0.029489601
1.6519464 -2.613999 -0.152598 0.92492735 0.74261904 0.3833522 -0.9396332 0.58091956
-3.1548228 -0.46737686 -1.2342141 -0.4490053 -0.16230638 1.2877141 1.8229516 0.61611265
0.19758978 1.6440672 -0.72399634 1.5049769 1.4969953 -0.032763135 -1.1690118 -2.2502406
-4.2349033 0.035302933 -0.66521746 -2.5601032 -1.5117657 -1.5452554 -2.6023192 -1.2775487
0.24558015 2.215766 0.18143225 0.11748908 1.3439791 -0.7013933 -0.06344019 -0.16458906
-1.3087494 -0.23223148 1.1408622 -0.7503267 -0.79032993 -0.92386925 -1.3725724 -1.0754362
-2.1985176 2.1503382 0.20483215 0.2447218 0.08774884 0.45764968 -0.09181587 -0.3900107
0.81266797 0.12028949 0.11824973 0.7973229 1.2536752 0.58759546 1.3442079 1.5116501
-0.20229132 2.0898886 1.5137365 1.1582888 0.8249967 1.9231015 0.14058954 0.12400848
0.47644353 -0.2941527 0.18086872 0.13814318 -0.38176018 -0.70653903 -0.80373114 -0.1202682

layer1.1.bn1.weight f4 [16]
00000000: 0f1d 2540 f3e0 2540 4166 8b3f de10 de3f
00000010: f8fc a53f 14f1 1840 7547 f13f c7e8 2340
00000020: 1f36 9d3f b347 d83f eb1f 3140 5fdf f63f
00000030: c2dd 3240 bf88 bf3f 6e0c 2640 de35 963f
2.5798986 2.5918548 1.089058 1.7348897 1.2967825 2.3897142 1.8849932 2.5610826
1.2282141 1.6896881 2.767573 1.9286917 2.794785 1.4963607 2.5945086 1.1735189

layer1.1.bn1.bias f4 [16]
00000000: 9799 c73f 79fe 1bbf 9c6b fabf d6c0 7ebf
00000010: e636 e7bf 5828 3e3f c553 90be 9319 99bf
00000020: 5466 4fbf c9df eebf d1e5 9dbf b698 e1be
00000030: 2cb7 7bbc d1a8 c4bf 5020 d13d 738f c9be
1.5593747 -0.6093517 -1.956409 -0.99512994 -1.8063629 0.7428031 -0.2818891 -1.196093
-0.81015515 -1.8662044 -1.2335759 -0.44061822 -0.015363496 -1.5364019 0.10211241 -0.39367256

layer1.1.bn1.running_mean f4 [16]
00000000: f4e3 05c2 785d 2fc2 cc98 9d42 bfea b040
00000010: 1a3f b642 fb30 45c2 6d7e 75c2 cf6d cec2
00000020: edfe 9ac2 6c3b 37c2 2cd6 4fc2 2198 8cc2
00000030: 57da b9c2 5b17 d8c1 2fa8 48c2 6320 8542
-33.47261 -43.841278 78.79843 5.5286555 91.123245 -49.297832 -61.373463 -103.21447
-77.4979 -45.80803 -51.959152 -70.29713 -92.926445 -27.011404 -50.16424 66.563255

layer1.1.bn1.running_var f4 [16]
00000000: 1085 a044 396b 0646 da36 1445 d190 5645
00000010: 7584 2b45 8d11 2645 7c72 ba45 b6bc d145
00000020: 948e ca44 24ee 8145 c317 e245 0611 ac45
00000030: fe29 c145 1c46 5545 213b 7a45 2d4f 1e45
1284.1582 8602.806 2371.4282 3433.051 2744.2786 2657.097 5966.3105 6711.589
1620.4556 4157.7676 7234.97 5506.128 6181.249 3412.3818 4003.6956 2532.9485

layer1.1.conv2.weight f4 [16, 16, 3, 3]
00000000: 2554 bdbf f049 ae3f 2fe2 89bd d331 a33e
00000010: 9d7c b03f 38fe eabd 19c3 babd 9510 6b3f
00000020: 6b1c 223f 4f17 1bc0 a0d9 1e40 d6a3 cd3e
00000030: f435 fbbf 836f c73f 8aee 893f ab4a 56be
00000040: cec8 ad3d 7675 853f ed02 6f3e e7e1 0040
00000050: 1750 4e3f e0be d5bf 4984 a53e 0640 573f
00000060: 3553 2ac0 b5ab 06bf 7ced 99bc 6e2c f13f
00000070: caa8 38bf ad26 543f d28e 4bbf 04a4 9abf
00000080: 6f43 583f 512e 11c0 4d90 a1be 5465 c43e
00000090: 1c8a be3e 1523 a13d 37d4 1940 f464 52be
000000a0: 4adf 94be 5714 703f a908 83bf a1af bebf
000000b0: 1401 07be 9a96 80bf 1254 f8bf 55ad e43f
000000c0: 8f94 a8be 5c33 933e f6cb 0740 7f51 78bf
000000d0: b909 56bf 5f67 9abe 9184 c03e 42eb a4be
000000e0: 2a7b da3f 183d 23bd cf6c 843e eef6 6ebd
000000f0: 4452 113f 6f5b 1b3f e9d0 e23e 00a7 143f
00000100: f22e a43f fe15 7d3f 711e 283e 7d48 f33d
00000110: 92d8 bdbe bd09 c03e fece 13bf 66c6 53bf
00000120: c7dc 90bf 0730 a53f 2901 663d 4aa0 cc3e
00000130: 202b 03bf 1744 a3bf fb30 6fbe 1f94 3f3e
00000140: 8a6a 29bd 0d90 14c0 f280 d3be 946d 0c40
00000150: 73a9 f2bf 0da2 2dbe d8ae 693f 335a e5bf
00000160: 4822 e7bf cde5 2e3f 2d58 8e3f 8784 8440
00000170: fcf9 f13f 1de7 4f3f 26a4 4440 66b4 6640
00000180: 33a2 723e 2414 63bf be85 2340 a635 4bc0
00000190: 2551 6dc0 5d98 943c 218f 82bf d407 15bf
000001a0: 14f3 373f 0196 e7be 2468 4ebf d281 bf3e
000001b0: f3da 95bf 6c2e 2f3e a2bb 51bf 4af2 19bf
000001c0: f133 09bf acf5 28bf 62c5 d2be e263 f1bf
000001d0: aab1 343f 1d74 8bbe f3a1 9b3f 32c7 3440
000001e0: 54a0 8fbe 63f6 e23f a388 2d40 3872 cbbf
000001f0: e038 7a3f 0e15 843f 2e2e a0bf af7b 873f
00000200: d046 103f 1f61 793d 4ebe 62be 5672 43bf
00000210: ed83 353f 57cd b23f 9810 d63f f8ef 093f
00000220: 08f5 76be 019c c43e a0e9 15bf ddee 94bf
00000230: 12d4 71bf 1d91 24bf aa17 86bf e4f9 56bf
00000240: dc40 29c0 2201 adbf 60ff 273f 9844 65be
00000250: 72a3 463f 2196 60be a926 873f f070 0040
00000260: c3f0 0440 d7d8 1ac0 85b7 7dbf 58ea 41c0
00000270: 119e 91c0 9a92 e9bf 7af2 4dbf 7285 38c0
00000280: 2ad2 54bf bfe0 cabe 677e 253f 31db 8b3f
00000290: d814 c73f d0aa 6abf 3e8a bdbe 1012 74be
000002a0: 7237 67bf 72db b1be 7815 8cbf 4faa e13f
000002b0: 09eb a53f 0d34 47be 3929 203f 18df b8bf
000002c0: 5f96 1fbf 3a07 e2be bb32 cbbe 7567 9bbf
000002d0: 9240 2dc0 e6fd 9cbf 7b38 94bf d6ea 67c0
000002e0: e0cf 99bf 3488 db3e e49a 77bf f58b 9fbe
000002f0: 4b98 8a3f 84d1 36bf 6f09 c7bd 5a0f 4c3f
00000300: 2aac 663e 7766 533f 9994 d13f 8220 eb3e
00000310: 6b29 4cbf 0974 3c3e 47a6 03bf 05c3 14c0
00000320: 02f2 8dbf 3e0d 6dbf db3f 3dc0 8e75 bebf
00000330: 7c12 b7be a017 01c0 5309 b4bf 040b 35be
00000340: c574 853e 5916 3940 8604 a0bd 45bf 7b3f
00000350: 91ed ee3f 050b 803f 22d2 83be 4ca5 ce3f
00000360: 896f 0040 d878 d33e ec43 ce3d 5083 a23e
00000370: a83c 243e bfcc 6a3f 3fcd 95bf c0d7 55be
00000380: 23eb a53f 93b7 06c0 7a6c 163e 3c18 143f
00000390: cf43 e8bf 875f 93bf 8b84 a73f ffe8 27c0
000003a0: a314 86bf 50f6 623f dd55 563f de09 22c0
000003b0: 1d8d 19c0 3bb9 903c 43c9 4fbf 3681 21c0
000003c0: 48a4 81bf 0489 a23f 3887 d7bf 2b62 83be
000003d0: ca7d f3bd e993 3c3e 973e f0be 481e 32bf
000003e0: b330 dcbe ca9b c0bc 4410 46bf e4b8 f0be
000003f0: ac39 1ec0 2c17 38c0 304b 78be d403 d5bf
-1.4791304 1.3616314 -0.06732594 0.3187395 1.3788029 -0.1147427 -0.09119243 0.9182218
0.6332461 -2.4232976 2.4820328 0.4016406 -1.962584 1.5580906 1.0775921 -0.20926921
0.08485566 1.0426471 0.2334096 2.013788 0.8059096 -1.6698875 0.32327488 0.84082067
-2.6613286 -0.52605754 -0.01879 1.8841684 -0.7213255 0.82871515 -0.795148 -1.2081304
0.84477895 -2.268452 -0.31555405 0.38358557 0.37214744 0.078680195 2.4035776 -0.20546323
-0.29076606 0.93781036 -1.0237018 -1.4897348 -0.13184005 -1.004596 -1.9400656 1.7865397
-0.3292584 0.28750122 2.1218238 -0.96999353 -0.83608586 -0.3015699 0.3760114 -0.32210737
1.7068837 -0.039853185 0.25864264 -0.05834096 0.5676615 0.6068639 0.4430001 0.5806732
1.2826827 0.9886168 0.16417862 0.118790604 -0.37079293 0.3750743 -0.5773772 -0.82724607
-1.1317376 1.2905282 0.05615345 0.3996604 -0.5123768 -1.2755154 -0.23358528 0.18708847
-0.04136137 -2.3212922 -0.41309315 2.194188 -1.8957962 -0.16956349 0.91282415 -1.7918152
-1.8057337 0.683194 1.1120659 4.1411777 1.8904414 0.81212026 3.0725188 3.6047606
0.23694687 -0.8870261 2.555038 -3.1751494 -3.7080777 0.018139059 -1.019993 -0.5821507
0.7185528 -0.4523163 -0.80627656 0.37403733 -1.1707443 0.17107552 -0.8192693 -0.6013533
-0.5359488 -0.65999866 -0.41166216 -1.8858607 0.70583594 -0.27237025 1.2158798 2.824658
-0.28052008 1.7731441 2.7114646 -1.5894232 0.97743034 1.0318925 -1.2514093 1.058462
0.5635805 0.060883638 -0.22142908 -0.7634634 0.7090443 1.3968915 1.6723814 0.5388179
-0.2411691 0.38400272 -0.5855961 -1.1635395 -0.9446422 -0.64283925 -1.0475972 -0.8397505
-2.6445837 -1.3515971 0.65624046 -0.22389448 0.7759315 -0.2193227 1.0558673 2.0068932
2.077195 -2.4194849 -0.99108154 -3.0299282 -4.550545 -1.8247864 -0.80448115 -2.8831449
-0.83133185 -0.39624593 0.64646 1.0926267 1.5553236 -0.9166689 -0.37019533 -0.23835015
-0.9031898 -0.34737736 -1.0944052 1.7630099 1.2962352 -0.1945345 0.625629 -1.4443083
-0.62338823 -0.44146138 -0.39687142 -1.2140948 -2.707066 -1.2264984 -1.1579736 -3.6237082
-1.2016563 0.42877352 -0.9672072 -0.31161466 1.0827726 -0.71413445 -0.09718596 0.79710925
0.22526613 0.82578224 1.6373473 0.4592324 -0.797507 0.18403639 -0.51425594 -2.324403
-1.108948 -0.9259833 -2.9570224 -1.4879625 -0.3575629 -2.017067 -1.4065346 -0.17679983
0.2606565 2.891989 -0.07813363 0.9833873 1.866625 1.0003363 -0.25746256 1.6144195
2.0068076 0.41303134 0.10071549 0.31740808 0.16038764 0.9171867 -1.1703261 -0.20883083
1.2962383 -2.1049545 0.14689818 0.5784948 -1.8145694 -1.1513528 1.3087324 -2.623596
-1.0475048 0.88657093 0.83724767 -2.5318522 -2.3992379 0.01766645 -0.81166476 -2.5235114
-1.012826 1.2698064 -1.683814 -0.25660834 -0.11889227 0.18415798 -0.46922752 -0.69577456
-0.43005905 -0.023511786 -0.7736857 -0.4701606 -2.47227 -2.8764143 -0.24247432 -1.6641793

layer1.1.bn2.weight f4 [16]
00000000: cf9d d53f 58b3 933f 4964 283f 519a 6f3f
00000010: 9fea 0940 7199 983f 527f 9d3f 0e91 863f
00000020: 50c4 863f 46f0 933f 3af1 823f 78f2 383e
00000030: 243f 313e 602b 0040 1363 4840 ea21 1540
1.6688784 1.1539106 0.65778023 0.93594843 2.1549451 1.1921827 1.230448 1.0513017
1.052866 1.1557701 1.0229867 0.18061244 0.17309242 2.0026474 3.131047 2.330195

layer1.1.bn2.bias f4 [16]
00000000: 9096 07c0 f489 38bf 4e6c a7bd 5ac8 65bf
00000010: d5fa a6bf 9100 92bf 217d 643f e977 0abd
00000020: f46d c1bf 1edc e63d 9dd0 ecbf cdec 56be
00000030: 4308 7c3e d103 64c0 845b fcbf 35bb 193f
-2.1185646 -0.720855 -0.08174954 -0.8975884 -1.3045298 -1.1406423 0.8925343 -0.03380576
-1.511168 0.11272453 -1.8501164 -0.2098877 0.24612527 -3.562733 -1.9715428 0.6005128

layer1.1.bn2.running_mean f4 [16]
00000000: 04d6 e940 d61f e0c1 e710 b0c1 a68a ee41
00000010: f845 66c1 4c5b 8fc1 ca64 7341 3517 69c1
00000020: ed4e 25c0 ff81 1040 7f23 54c1 121a 9ec0
00000030: 2eb3 7341 aef4 8740 b333 be40 70ef 55c1
7.307375 -28.015545 -22.008253 29.8177 -14.392082 -17.919579 15.212107 -14.568166
-2.5829422 2.2579343 -13.258666 -4.9406824 15.231245 4.248618 5.943811 -13.370956

layer1.1.bn2.running_var f4 [16]
00000000: 5c47 0144 b5ce d743 6981 1144 ae91 de43
00000010: 0786 ed43 318c d843 756e d343 9631 2344
00000020: 8482 dc43 8460 1344 8b97 8943 fb5d 2844
00000030: 0987 2044 818b 1544 6f7a 4744 dfac 0a44
517.115 431.6149 582.02203 445.13812 475.0471 433.09525 422.86295 652.7748
441.01965 589.50806 275.18393 673.46844 642.1099 598.17975 797.913 554.7011

layer2.0.conv1.weight f4 [32, 16, 3, 3]
00000000: 56b2 11c0 8b31 723f 79ae 30be 37e4 93be
00000010: 5185 0640 bcbf a83e e23c b3be 1e0b 02bf
00000020: 83ac f1be 9a13 b2bf cb8b e83e cd66 13bf
00000030: 63a2 b0bf 7965 55bf fb9c 9fbf ba27 a3bf
00000040: 3610 563d 64d1 41bf 975a 00bd 5671 08bf
00000050: 771f 85bf 53f5 223e c13a acbe 0dfa c5bd
00000060: 5802 733f 820f 233d a713 d13e 0b18 51bf
00000070: d529 87be 7609 cd3e 4f12 9fbf af49 85bf
00000080: 815e 0b3e 4ae6 14c0 3598 29c0 f57a eebf
00000090: f753 053f 591b 0abf 5925 b23f b5f2 73bf
000000a0: fb76 b3bf 05ef fbbf b607 fa3d 420a 93bf
000000b0: 0846 1f3f 9af1 253f 7cb7 e93e 01ce c63f
000000c0: 3b29 143f 225b bb3f 7df5 4b3e e392 c5bf
000000d0: ff36 23c0 f43c 13c0 e21a 5dc0 b0e0 f4be
000000e0: d455 58bf 55bf 9fc0 35d5 debf 3ed6 323e
000000f0: b297 58c0 4f8a bf3d c233 5c3f aa41 b8bf
00000100: 84d4 09c0 ffdb a9bf c071 03bf 2f37 a9bf
00000110: 93ae 9e3d 31f2 0840 0557 f9bc 0a09 20bf
00000120: 9488 0140 eb78 b5bf 6f44 b6bf 0aec 30be
00000130: 1e1e 823f ecd0 93be b596 ee3f 9b20 5abf
00000140: 95ef fe3d 0f00 a93e fe99 103f 0813 043e
00000150: 70aa e3bf 4b4e 4cbe c42d 7a3d 9187 093f
00000160: f30a 273f c21c 35be fd18 533f ba72 733e
00000170: e2be ab3f 74da 493e 0340 503e 7afc c03f
00000180: 566f c63e 4fc4 bebf b8fd 713f f045 503f
00000190: 0992 543f a668 fb3e 1c1e 693d 7535 f8bb
000001a0: cca2 5cbe 67af 983f 82ef 9a3f 481b a53e
000001b0: a2ff 7a3e 891c fb3e af4f 39be b168 1fbf
000001c0: 0e05 9ebe f7f2 2bbf 9653 b73e c6ac 0c3f
000001d0: f3c0 f1be b041 c9bf 23d6 44c0 9108 48c0
000001e0: 72eb 07c0 7640 54c0 94f5 2cc0 6539 613e
000001f0: 00b2 493f ff1c 84be 8a4d 31c0 b0ba 443e
00000200: fb60 e93e d3b5 06bf bfa4 a0bf 031a 2c3f
00000210: b87d 9dc0 ee05 353e d28c d13f 1469 333f
00000220: 036b 8bbf 25bb 713f 0c65 00bf 08b2 afbf
00000230: 63ab 0040 fd98 5d3f e0ea 24bf 11b0 083f
00000240: 3238 083e bc6b 8e3f 6a75 2c3f 7252 8e3e
00000250: 31d5 a1bf adcb 28be c1a7 1040 81d8 e83e
00000260: bcdd 23bf 5991 28c0 4316 4abe cc0d 253f
00000270: 73b1 3ac0 33ab 873d 4fe7 423f 68bf 4cbf
00000280: 93d6 aabf 684a 613d 0853 f43d c7a3 3e3f
00000290: d1ed b13e bb9a 663f 0100 343e cdab c9be
000002a0: 5c98 3fbd 052c b5bf ac57 263f 5937 e4be
000002b0: 4477 ab3e af29 67bf a219 793f 2ca1 c13e
000002c0: 8fa2 9dbe 78d3 3b3e 278f 2c3f 536c d0be
000002d0: ff14 9ebf e6dd 8dbf aeb8 3140 6531 35c0
000002e0: baf8 2c40 5411 093f 9a4a 8c3f 8df4 9b3f
000002f0: d0cc edbf 399d 52bf a8cf bbbe 23bd 09c0
00000300: 3137 2d3f bcff 06c0 b3fc 84be 43e2 29c0
00000310: aba4 d53e 77bf bc3f 895d 3cbd edca 2cc0
00000320: 7d5a c9bf b5b6 2cc0 c2a6 18bf 7f3a 6f3f
00000330: c024 67bf ef50 2240 2f07 f9bd cdf9 e13e
00000340: 327f b33f f37b 1c3f 7235 e4be dda4 193f
00000350: a854 1bbf 1dab 53bf 2cd7 02c0 4386 16bf
00000360: 8017 113f b94e b6bc 76bb e13d 36b1 1040
00000370: 6f49 ea3e 2d9b 33bf a349 d3bf c2f8 1cc0
00000380: cf62 c83e 4200 c1bf e533 2440 37a2 e1bf
00000390: 49f9 2f40 6212 e03f b52f 41c0 c20d a13f
000003a0: 6a4c 1bc0 8cf2 423f ad38 71bf 050f 243f
000003b0: ae42 12bf 3b45 743f a20d 983f 1e04 6fc0
000003c0: 8609 58bf c69e abbf 00cd 10c0 903a f3be
000003d0: 5e76 4c3f b736 fdbd 2cc2 a23f 27d5 873f
000003e0: cc75 31bf d4fa 953f 3837 29bf 0196 23bf
000003f0: b31d c3be 2fde c73e c2ba 553d 7e50 25be
-2.2765098 0.94606847 -0.17254056 -0.28885052 2.101887 0.32958782 -0.35007387 -0.50798213
-0.47201928 -1.3912232 0.45419154 -0.57578737 -1.3799556 -0.8335796 -1.2469782 -1.2746499
0.052261554 -0.7571013 -0.031336393 -0.53297937 -1.0400227 0.15913896 -0.33638576 -0.09666834
0.9492545 0.03980971 0.40835306 -0.8167731 -0.26399103 0.4004628 -1.2427462 -1.0413111
0.13610269 -2.3265557 -2.649915 -1.8631274 0.52081245 -0.5394798 1.3917648 -0.95292217
-1.4020685 -1.9682318 0.12208502 -1.1487505 0.62216234 0.6482178 0.456478 1.5531617
0.5787541 1.4637187 0.19917865 -1.5435451 -2.5502317 -2.3005953 -3.4547658 -0.47827673
-0.84505963 -4.992106 -1.7408816 0.1746454 -3.3842587 0.09352552 0.86016476 -1.4395039
-2.153596 -1.3270262 -0.51345444 -1.3219966 0.07748141 2.1397822 -0.030437002 -0.6251379
2.023961 -1.4177526 -1.4239634 -0.17277542 1.0165441 -0.28870332 1.8639742 -0.85206
0.124480404 0.33007857 0.56484973 0.12897885 -1.7786388 -0.19951741 0.0610788 0.5372248
0.6525108 -0.17686751 0.82460004 0.23774233 1.3417628 0.1971224 0.20336919 1.507705
0.38756818 -1.4903659 0.9452777 0.81356716 0.8303533 0.49103278 0.05691348 -0.007574732
-0.21546477 1.1928529 1.2104342 0.32247376 0.24511579 0.49045208 -0.18096803 -0.6226912
-0.3086323 -0.6716761 0.35805959 0.5495113 -0.4721752 -1.5723171 -3.0755699 -3.1255229
-2.1237454 -3.3164344 -2.702489 0.2199455 0.7878723 -0.25803372 -2.7703576 0.1921184
0.45581803 -0.5262119 -1.2550277 0.6722719 -4.9215965 0.17678043 1.63711 0.7008221
-1.0892032 0.94426185 -0.50154185 -1.3726206 2.0104606 0.86561567 -0.6442089 0.53393656
0.13302687 1.1126628 0.6736666 0.27797276 -1.2643186 -0.16483946 2.260239 0.4547768
-0.64010215 -2.6338713 -0.19735055 0.6447418 -2.9170806 0.066244505 0.761342 -0.7997956
-1.3346733 0.0550026 0.119298995 0.74468654 0.34751752 0.9007985 0.17578126 -0.39388886
-0.04677616 -1.4154059 0.64977527 -0.44573477 0.3348943 -0.9029798 0.9730474 0.37818277
-0.30788085 0.18342388 0.67405933 -0.40707645 -1.2350157 -1.1083343 2.776897 -2.8311398
2.702681 0.53542066 1.0960267 1.2184006 -1.8578129 -0.8227115 -0.36681867 -2.152169
0.6766234 -2.1093588 -0.25974044 -2.654435 0.41727194 1.474593 -0.04598764 -2.6998856
-1.573074 -2.6986516 -0.5962945 0.9344863 -0.9029045 2.5361898 -0.12159573 0.44135895
1.4023192 0.6112663 -0.44572026 0.60017186 -0.6067605 -0.82682973 -2.044383 -0.5879862
0.56676483 -0.022254335 0.110220835 2.260816 0.4575915 -0.70158654 -1.6506847 -2.452683
0.39137885 -1.5078204 2.5656674 -1.7627629 2.7495902 1.750561 -3.0185368 1.2582324
-2.426539 0.7615135 -0.94227105 0.6408542 -0.57132995 0.9541814 1.187916 -3.7346263
-0.8438953 -1.3407829 -2.2625122 -0.47505617 0.79868114 -0.12363952 1.2715507 1.0611924
-0.6932037 1.1717172 -0.6609988 -0.6390076 -0.38108596 0.390367 0.05218006 -0.16143987

layer2.0.bn1.weight f4 [32]
00000000: f4ad b53f 1d5f 4740 da09 4640 0513 3240
00000010: 8283 1740 a36a 1a40 d905 ee3f e17c ac3f
00000020: 8137 593f b404 bd3f df85 0040 0acd 6c3f
00000030: ba4d de3f a0f1 0440 3d8c c83f dd35 d63f
00000040: 4c33 3b40 a62e d23f dd4f 0440 67a7 d63f
00000050: 265d 1940 d611 eb3f 8f7e 1e40 3912 1c40
00000060: fde5 2540 d2cf 0540 f412 dc3f fcd3 1440
00000070: 1095 813f 6549 a63f 00ef ee3f 8b00 d13f
1.4193711 3.1151803 3.0943513 2.7824109 2.3674016 2.4127586 1.8595535 1.347561
0.8485032 1.476706 2.0081708 0.92500365 1.736747 2.0772476 1.5667797 1.6735188
2.925006 1.6420486 2.0673745 1.6769837 2.3963103 1.8364818 2.4764745 2.4386122
2.5921624 2.0908093 1.7193284 2.3254385 1.0123615 1.2991148 1.8666687 1.6328291

layer2.0.bn1.bias f4 [32]
00000000: 7625 3abf 5b69 86bf 4ddc 90bf 3ed4 9bbf
00000010: b078 91bf 084e 9abf 2248 afbf 9fee 91bf
00000020: 7015 903f ecc3 0ac0 c8d3 a8bf 51ce 633f
00000030: a20b b1be 1cdf 07bf fe93 16bf 3a24 04bf
00000040: 2819 61bf e426 25bf 79c0 0bbd 01c7 1cbf
00000050: 2e8a 1bbf ceca 11bf 6720 45bf 56c7 c5be
00000060: 525d 01bf 0c22 09bf 6610 d9bf 180e abbe
00000070: beed afbe 22ae 85bf a099 b3be 583a 133f
-0.7271341 -1.0500902 -1.131723 -1.2174146 -1.1364956 -1.2055063 -1.3693888 -1.1400946
1.1256542 -2.1682081 -1.318963 0.8898669 -0.34579188 -0.5307481 -0.5881957 -0.5161778
-0.8792901 -0.6451247 -0.034119103 -0.61241156 -0.6075772 -0.5695008 -0.7700257 -0.38628644
-0.5053302 -0.53567576 -1.695813 -0.3340919 -0.3436107 -1.0443766 -0.35078144 0.575109

layer2.0.bn1.running_mean f4 [32]
00000000: 3cc7 b0c2 d314 bfc1 7a2b 65c2 af34 17c2
00000010: 1958 00c3 d6da c441 5617 1941 5743 d642
00000020: 0b15 c5c0 d648 e741 3a67 71c2 be35 88c0
00000030: 64e6 08c2 8484 b9c1 18ad ef3f 20d1 a1c2
00000040: 1ded 31c2 b6b2 1342 1905 b4c2 56bf 7a41
00000050: e526 0fc2 9704 46c2 72c8 4042 ffef 26c2
00000060: f3bf 01c2 d532 33c2 74fb c342 77f4 cec1
00000070: c594 9e41 c188 95c2 d7ae 12c2 fec7 b7c2
-88.38913 -23.885168 -57.292458 -37.80145 -128.34413 24.606853 9.568197 107.13152
-6.1588187 28.910564 -60.350807 -4.2565603 -34.22499 -23.189705 1.8724699 -80.90845
-44.481556 36.924522 -90.00996 15.671713 -35.787983 -49.504482 48.195747 -41.73437
-32.43745 -44.79964 97.99112 -25.869368 19.822641 -74.7671 -36.670742 -91.89061

layer2.0.bn1.running_var f4 [32]
00000000: 89db 7845 670f ae45 7011 0246 4744 c245
00000010: bbdb a545 e655 8745 7ce1 7345 ec16 3945
00000020: 0168 0045 3296 f544 f5e8 4645 7b5d 6c45
00000030: 6d88 b045 bfa1 8345 ca85 2b45 d199 aa45
00000040: 8f2b b945 23eb 8445 f5e7 9c45 e0f3 7245
00000050: 07ed ad45 6c6e 8945 53e3 8d45 4dd5 e145
00000060: 1ef4 bf45 1e17 9c45 d75f 5b45 0b2f a945
00000070: d5ee 3d45 2536 5445 878d 8b45 a071 7045
3981.721 5569.9253 8324.359 6216.5347 5307.4663 4330.7373 3902.0928 2961.4326
2054.5002 1964.6936 3182.5598 3781.8425 5649.053 4212.2183 2744.3618 5459.227
5925.445 4253.392 5020.9946 3887.2422 5565.6284 4397.8027 4540.4155 7226.6626
6142.5146 4994.8896 3509.99 5413.8804 3038.927 3395.384 4465.691 3847.1016
